PINN_holed.pt (torch, 35691 bytes, 17 tensors)

linears.0.weight f4 [32, 2]
0.27304083 -0.4425365 1.6685712 -1.4233916 -0.3985746 0.5596136 0.29871333 -0.44933438
-0.20125213 -0.055571865 -0.13161758 -0.022288853 -0.25784916 0.5648109 0.13584372 -0.077447176
-0.048573624 0.16704395 -0.6795542 0.71482193 -0.24407974 0.32428554 0.8284657 -0.83560723
0.15642613 0.038064197 0.030918961 0.18951572 0.0009350776 -0.035817623 0.013987192 -0.35830885
1.2799442 -1.3306875 -0.249568 0.35485446 -0.40242174 0.31699175 0.8435207 -0.7634275
-0.96458566 0.8258941 -1.3043486 1.4097627 -0.24436623 0.12226484 -0.20678714 0.30957055
-1.2349389 1.3092527 -0.90736216 1.044142 -0.02392602 -0.24650647 -0.056819085 0.2932484
0.75790715 -0.73818606 0.4951903 -0.4906145 -0.05071017 0.38032523 -0.18818903 0.12014748
00000000: 02cc 8b3e 2594 e2be be93 d53f b231 b6bf
00000010: f811 ccbe d642 0f3f f4f0 983e 280f e6be
00000020: 0a15 4ebe 539f 63bd c2c6 06be 1d97 b6bc
00000030: ce04 84be 7297 103f 9e1a 0b3e a09c 9ebd
00000040: 23f5 46bd 920d 2b3e 44f7 2dbf 92fe 363f
00000050: 0af0 79be c108 a63e 5416 543f 5bea 55bf
00000060: 2c2e 203e 34e9 1b3d c349 fd3c 6910 423e
00000070: ff1f 753a 80b5 12bd 892a 653c 4274 b7be
00000080: 36d5 a33f f853 aabf c18e 7fbe 7caf b53e
00000090: 390a cebe be4c a23e f9f0 573f fc6f 43bf
000000a0: 16ef 76bf cc6d 533f e5f4 a6bf 1b73 b43f
000000b0: 243b 7abe fd65 fa3d 02c0 53be 0880 9e3e
000000c0: 7a12 9ebf 9895 a73f e348 68bf 72a6 853f
000000d0: 8000 c4bc 316c 7cbe 21bb 68bd a724 963e
000000e0: 3406 423f c3f9 3cbf 9589 fd3e d331 fbbe
000000f0: 78b5 4fbd fdb9 c23e a0b4 40be e20f f63d

linears.0.bias f4 [32]
0.23668025 -0.057376068 0.49207908 0.25372723 0.26529452 0.0948339 0.17878583 -0.15070233
0.15039682 0.008411613 -0.16582245 -0.3672573 0.7311375 -0.1394172 -0.015702087 0.18061757
0.12959543 0.25825152 -0.19108063 -0.23064317 -0.21902642 -0.04094624 -0.26286602 0.08737113
-0.14076364 -0.31085587 0.45505401 0.09743593 -0.068379626 0.27660698 0.14595582 0.13354048
00000000: 4f5c 723e 2b03 6bbd caf1 fb3e 89e8 813e
00000010: afd4 873e 4738 c23d a213 373e b651 1abe
00000020: a001 1a3e ddd0 093c 5ccd 29be 2609 bcbe
00000030: d42b 3b3f 62c3 0ebe aaa1 80bc d0f3 383e
00000040: aab4 043e 8b39 843e a4aa 43be b92d 6cbe
00000050: 7648 60be 3fb7 27bd 6096 86be a3ef b23d
00000060: 5824 10be 8028 9fbe d7fc e83e 7d8c c73d
00000070: 9e0a 8cbd 6e9f 8d3e 7175 153e d6be 083e

linears.1.weight f4 [32, 32]
0.049871735 0.5399084 -0.57750326 -0.17462817 0.03887369 -0.15033405 -0.11166442 0.31669256
-0.089641646 -0.22111352 0.4584085 0.15433854 -0.24041541 0.038874354 0.015316379 0.016506938
0.39652145 -0.22160175 -0.1885844 0.28013223 -0.45374426 -0.14904314 -0.14965427 -0.07373825
-0.029240465 -0.104945935 -0.37074476 0.12405259 0.25197688 0.13808447 -0.0034052706 0.026188646
-0.28846183 0.20117906 0.23866977 -0.05218846 -0.18649311 -0.24678878 -0.039073125 0.0016757142
-0.074773744 0.09155425 -0.21227366 -0.104262 -0.039829355 -0.21148422 0.0053457688 -0.2299981
-0.12334814 -0.10216403 0.05053646 -0.06134588 0.07415749 -0.035948966 -0.024193728 -0.15776809
-0.044582974 -0.18563068 -0.21322668 0.09793981 0.14328012 -0.03013545 -0.13864785 0.107585005
0.19846645 0.18437347 0.17791727 0.03397862 -0.106779344 0.3686825 -0.022343073 0.07433513
-0.2146108 0.35188308 0.13163978 -0.016658125 -0.18406732 0.056619044 0.14553936 0.0034797126
-0.18716763 0.03623202 0.060665786 -0.03529065 0.3067401 -0.18896088 0.03232282 0.06396813
0.5963235 0.014646536 -0.0018418086 -0.019155767 -0.3955685 -0.15368517 0.012539774 0.13447255
-0.19519505 -0.12339504 -0.15598744 -0.22956504 -0.0140442895 0.14114283 0.31229603 -0.16398431
0.10583558 0.028428478 -0.03224304 0.18989617 -0.37784028 0.48572126 -0.28328255 0.28142777
0.08913683 0.031353217 0.13210642 0.1558336 -0.0770931 0.28319323 0.040897578 0.22100465
0.19729649 0.09413786 -0.10983664 0.035212863 -0.2714293 -0.24123709 -0.102629706 0.22870612
0.21767177 0.20901765 0.000667272 0.12943994 0.351085 -0.06397874 0.10049909 0.17884524
-0.10778571 0.04149718 0.1301943 0.29604593 0.10178379 -0.079559006 0.014938919 0.2224281
0.15184769 -0.23198752 -0.09308346 -0.07204078 0.01535909 -0.18112117 -0.2817534 0.07260206
-0.040401 -0.039140277 0.12714785 -0.21955624 0.2099194 0.01136612 0.0066180546 -0.0377917
-0.020352472 0.4453255 -0.07164047 -0.11040207 0.03660741 0.18021864 0.04967938 0.22633706
0.3002992 -0.16948554 -0.021282395 -0.018847845 0.20198058 0.015493995 0.16503635 -0.13996759
0.13840203 -0.036040902 -0.09490581 0.22899294 -0.199062 -0.28572536 0.029759623 0.24517857
-0.08185935 -0.20268986 0.099559024 0.0046957894 0.12523122 -0.013647738 0.11221218 -0.096802965
0.14244874 -1.3487215 0.38539663 -0.033404946 -0.016427796 0.20278935 0.23532674 -0.063911915
0.09490505 0.5747122 0.33506873 -0.6947305 0.082034945 0.14410281 0.21247451 0.082033716
-0.9535428 0.3730041 0.26858598 -0.55834067 0.43808287 0.78027004 0.5499969 -0.13559471
0.5297004 0.20884146 -0.30637193 -0.26688927 -0.42389375 -0.35364878 0.4944342 0.057409532
0.004045092 -0.3067746 -0.32979503 0.35573313 -0.36258665 0.24256149 0.035236225 0.06063048
0.008751796 -0.19589484 0.4609348 -0.0058770697 -0.032790318 -0.13040753 -0.284354 0.0894163
-0.0024064654 0.060028028 0.0105493 0.19645452 -0.04903249 0.33358166 -0.123430304 0.15267484
-0.086079136 0.29573557 0.12381002 -0.07929122 -0.34032205 0.045647733 -0.0040435437 -0.19768877
00000000: 4e46 4c3d 7037 0a3f 41d7 13bf bad1 32be
00000010: 053a 1f3d 2bf1 19be 51b0 e4bd 8725 a23e
00000020: 0a96 b7bd 956b 62be 85b4 ea3e ec0a 1e3e
00000030: 752f 76be b73a 1f3d 8df1 7a3c 8f39 873c
00000040: dc04 cb3e 92eb 62be 451c 41be 7e6d 8f3e
00000050: 2b51 e8be c49e 18be f83e 19be 1404 97bd
00000060: b389 efbc e5ed d6bd 42d2 bdbe 490f fe3d
00000070: 1d03 813e 0466 0d3e f62a 5fbb 9289 d63c
00000080: 45b1 93be e201 4e3e d965 743e 91c3 55bd
00000090: 0df8 3ebe 33b6 7cbe 240b 20bd a3a3 db3a
000000a0: fa22 99bd cb80 bb3d 445e 59be 5187 d5bd
000000b0: 1b24 23bd 528f 58be 8f2b af3b 9f84 6bbe
000000c0: f39d fcbd 603b d1bd 52ff 4e3d d145 7bbd
000000d0: e2df 973d 393f 13bd ed31 c6bc f58d 21be
000000e0: a39c 36bd f815 3ebe 1858 5abe ab94 c83d
000000f0: 06b8 123e 9fde f6bc b4f9 0dbe 8755 dc3d
00000100: ca3a 4b3e 66cc 3c3e f22f 363e 2a2d 0b3d
00000110: 21af dabd f4c3 bc3e d208 b7bc 043d 983d
00000120: efc2 5bbe 052a b43e 94cc 063e 9f76 88bc
00000130: 257c 3cbe 5fe9 673d 4508 153e e40b 643b
00000140: dfa8 3fbe 0768 143d b07c 783d ee8c 10bd
00000150: 0a0d 9d3e f67e 41be ef64 043d b901 833d
00000160: a8a8 183f 06f8 6f3c d768 f1ba 8eec 9cbc
00000170: f487 cabe a55f 1dbe a073 4d3c 2cb3 093e
00000180: 36e1 47be 8ab6 fcbd 2cbb 1fbe 1913 6bbe
00000190: 051a 66bc bf87 103e 44e5 9f3e 81eb 27be
000001a0: 53c0 d83d d7e2 e83c 4711 04bd 2474 423e
000001b0: 4874 c1be 75b0 f83e 690a 91be 4d17 903e
000001c0: 5f8d b63d 3b6c 003d e846 073e d892 1f3e
000001d0: fde2 9dbd b4fe 903e 3884 273d 0b4f 623e
000001e0: 1708 4a3e 5acb c03d 08f2 e0bd 5d3b 103d
000001f0: c8f8 8abe db06 77be 862f d2bd f031 6a3e
00000200: 59e5 5e3e b908 563e deeb 2e3a e78b 043e
00000210: 6ac1 b33e 4907 83bd 78d2 cd3d 3523 373e
00000220: c1be dcbd f2f8 293d a851 053e 5593 973e
00000230: 0574 d03d d5ef a2bd 5ec2 743c 31c4 633e
00000240: f67d 1b3e 238e 6dbe 8ba2 bebd 1e8a 93bd
00000250: b1a4 7b3c d477 39be fb41 90be 64b0 943d
00000260: 857b 25bd 8e51 20bd 0c33 023e 5ad3 60be
00000270: 1cf5 563e f638 3a3c 44dc d83b 78cb 1abd
00000280: 3aba a6bc b401 e43e 3db8 92bd 7b1a e2bd
00000290: a7f1 153d 3c8b 383e 9b7c 4b3d e7c4 673e
000002a0: d1c0 993e 9e8d 2dbe 6b58 aebc cc66 9abc
000002b0: ffd3 4e3e 86da 7d3c 4aff 283e aa53 0fbe
000002c0: 43b9 0d3e a09f 13bd fa5d c2bd 207d 6a3e
000002d0: e9d6 4bbe 984a 92be 74ca f33c 1710 7b3e
000002e0: e0a5 a7bd ee8d 4fbe 9ae5 cb3d 23df 993b
000002f0: 9d3c 003e c39a 5fbc 80cf e53d a240 c6bd
00000300: 15de 113e e8a2 acbf b552 c53e a0d3 08bd
00000310: 9693 86bc 03a8 4f3e 7ef9 703e 40e4 82bd
00000320: 945d c23d 5720 133f 218e ab3e dcd9 31bf
00000330: f001 a83d b08f 133e eb92 593e 4b01 a83d
00000340: 621b 74bf 65fa be3e 1a84 893e 6aef 0ebf
00000350: 664c e03e c7bf 473f 99cc 0c3f 57d9 0abe
00000360: 729a 073f 89da 553e c8dc 9cbe b6a5 88be
00000370: 9a08 d9be 7411 b5be 7b26 fd3e 4226 6b3d
00000380: b18c 843b 8f11 9dbe e5da a8be a722 b63e
00000390: f5a4 b9be 0a62 783e dc53 103d ab57 783d
000003a0: b163 0f3c a898 48be a5ff eb3e 6f94 c0bb
000003b0: 244f 06bd 8d89 05be d996 91be e51f b73d
000003c0: cab5 1dbb f3df 753d f9d6 2c3c 602b 493e
000003d0: 4bd6 48bd 37cb aa3e 07c9 fcbd cb56 1c3e
000003e0: 424a b0bd a76a 973e 1c90 fd3d 6f63 a2bd
000003f0: b13e aebe 1ef9 3a3d b47f 84bb ed6e 4abe

linears.1.bias f4 [32]
-0.4450238 -0.28552842 0.13403283 -0.46433523 0.31106892 0.12779935 -0.15564197 0.17404811
-0.50546074 -0.09627347 0.32709122 -0.285021 0.37969038 -0.22351113 -0.26933017 -0.31849915
-0.2123986 0.14981894 -0.36855388 -0.28668618 -0.5369638 0.11637751 -0.056138117 -0.09248628
-0.1968749 -0.20371999 -0.25738788 -0.09292568 -0.030476162 -0.24669401 0.22550261 -0.028019603
00000000: 29da e3be c830 92be e73f 093e 59bd edbe
00000010: 6d44 9f3e d5dd 023e 9c60 1fbe ab39 323e
00000020: e065 01bf 062b c5bd 8078 a73e 46ee 91be
00000030: c766 c23e 1ae0 64be a5e5 89be 5212 a3be
00000040: 057f 59be 236a 193e 18b3 bcbe 88c8 92be
00000050: 7676 09bf 5557 ee3d 15f1 65bd 7269 bdbd
00000060: 9399 49be f99b 50be 58c8 83be d24f bebd
00000070: 25a9 f9bc 5b9d 7cbe 28ea 663e 5e89 e5bc

linears.2.weight f4 [32, 32]
0.25868243 0.027955763 -0.03776108 0.21808258 0.21392785 0.30254754 -0.42017707 -0.18786918
-0.08896041 0.29345912 0.17536208 0.011554611 -0.18995361 -0.20765251 -0.0056177294 -0.008687896
0.25016296 0.4913958 -0.12244891 -0.10108659 0.24115881 0.30133003 -0.1493613 0.20971063
-0.09458595 -0.37810168 0.20557755 -0.2243853 0.050585818 0.10010146 0.15091097 0.30981398
-0.08757178 0.114066355 0.09489786 0.22194676 0.15718673 0.10376374 -0.002239733 0.067779094
0.16745587 0.34651202 0.07379295 0.085070804 -0.25550106 0.31480387 0.18902561 0.40847597
0.19166148 0.085060045 0.076713376 0.0118221305 -0.0438085 -0.13988777 -0.0020125676 0.112222806
-0.23265444 -0.06483549 0.16674063 0.3873961 -0.10622101 0.058695782 -0.27909216 -0.0053134942
-0.029542208 0.052684654 0.17028728 0.18439403 -0.05566855 -0.23968731 -0.16981374 0.08863591
0.40659025 0.19688368 0.09544613 0.21640192 -0.016916867 -0.23669125 0.20071745 0.16005678
0.17213853 0.18489791 0.24422455 0.34748355 0.31771517 -0.087512106 0.27756378 0.041096445
-0.12137609 0.17922372 0.14695299 -0.014833931 0.054986846 0.030330997 0.16920319 -0.29993707
0.34865788 0.27475935 0.17430212 -0.09200087 -0.022867434 0.095764734 -0.35589287 -0.30079967
0.3018571 0.48785788 -0.014717793 -0.089831725 -0.23995917 -0.49715355 0.1552809 -0.019887611
-0.075859465 0.36008433 -0.10412806 0.07140225 0.12396941 0.3088178 -0.22185037 -0.24657854
-0.05278552 -0.23812774 -0.03968445 0.2367854 0.49156603 0.079778664 0.067743614 -0.30295688
-0.04697384 -0.18710083 0.14773346 -0.00882437 0.20973094 -0.056774132 0.28661123 0.21819958
0.13553089 -0.16798422 -0.31706372 0.14943059 -0.14759643 0.44149163 -0.02008065 -0.39302272
-0.18193695 -0.3053971 -0.17541297 0.14923102 -0.022824967 -0.062166337 -0.4081416 -0.31063735
0.114954 0.61941165 -0.03521513 -0.4087591 -0.15773803 0.08216727 -0.014279303 0.11190785
-0.04190772 0.098437764 0.18750215 -0.01741857 -0.10638808 0.053099364 -0.36244905 -0.083089866
0.21781603 0.16280735 -0.24876802 -0.044025846 0.10771617 -0.048595008 0.07861288 0.19958398
-0.02605835 0.085603006 0.039076827 -0.12057593 0.22587924 0.3227116 -0.06113056 -0.39270115
-0.11980219 -0.06185265 0.00043860963 0.06399833 -0.28028688 -0.11346463 0.011914331 0.47206226
0.110454805 0.2762413 -0.1738211 -0.11545206 0.47207558 -0.022279505 -1.4535272 -0.3401539
0.699264 0.5470787 0.8791206 -0.6181718 -0.09819075 -1.1387264 0.5310934 0.108902745
0.04200417 0.8983672 0.5232596 -0.18860413 0.3080459 1.2194262 0.32263604 0.42880905
0.14941302 -1.1669922 0.4656326 0.22220671 0.69548213 0.5180059 0.21839696 -0.4678648
-0.08182078 -0.109569736 0.17365026 -0.19016434 -0.099720076 0.06113041 0.5243844 0.24643333
0.042636096 -0.20696785 -0.070308566 0.09018717 0.023945583 0.14139661 -0.25398818 -0.26520193
0.04895277 0.09046569 0.07206906 -0.024250714 0.10905756 -0.28867814 -0.14389126 0.0012980703
-0.10414308 0.014432949 -0.046084315 0.023878364 -0.28704676 -0.0022879445 -0.020352622 0.44672617
00000000: 0672 843e 7c03 e53c 5dab 1abd 0a51 5f3e
00000010: e70f 5b3e 83e7 9a3e 7321 d7be c760 40be
00000020: e030 b6bd 4640 963e 1e92 333e 8d4f 3d3c
00000030: 3383 42be dca2 54be ee14 b8bb ad57 0ebc
00000040: 5c15 803e 3b98 fb3e 7ec6 fabd 7c06 cfbd
00000050: 56f2 763e ee47 9a3e 2bf2 18be 62be 563e
00000060: 47b6 c1bd 8b96 c1be ec82 523e 43c5 65be
00000070: 1333 4f3d ff01 cd3d 6888 1a3e f09f 9e3e
00000080: d558 b3bd 9f9b e93d cf59 c23d 0346 633e
00000090: 8ff5 203e 1582 d43d 7cc8 12bb c4cf 8a3d
000000a0: 8d79 2b3e 066a b13e c220 973d 9a39 ae3d
000000b0: 09d1 82be f92d a13e ee8f 413e c323 d13e
000000c0: e842 443e f633 ae3d e71b 9d3d 9cb1 413c
000000d0: 8b70 33bd bd3e 0fbe 48e5 03bb 12d5 e53d
000000e0: f73c 6ebe 78c8 84bd 0ebe 2a3e c858 c63e
000000f0: 678a d9bd fd6a 703d 2be5 8ebe d21c aebb
00000100: 8002 f2bc ddcb 573d ca5f 2e3e cad1 3c3e
00000110: b504 64bd 9770 75be a7e3 2dbe be86 b53d
00000120: 992c d03e e09b 493e 4379 c33d 7798 5d3e
00000130: 3e95 8abc 315f 72be e088 4d3e ede5 233e
00000140: 1545 303e e155 3d3e 0016 7a3e 5de9 b13e
00000150: 90ab a23e 8c39 b3bd d71c 8e3e bf54 283d
00000160: 0794 f8bd 6c86 373e d87a 163e 040a 73bc
00000170: e339 613d b678 f83c 9a43 2d3e 5a91 99be
00000180: 4983 b23e 42ad 8c3e 417c 323e f46a bcbd
00000190: 7c54 bbbc 4d20 c43d 9737 b6be 6a02 9abe
000001a0: 048d 9a3e 82c8 f93e e622 71bc b2f9 b7bd
000001b0: dbb7 75be e98a febe f501 1f3e 58eb a2bc
000001c0: 355c 9bbd f95c b83e 1841 d5bd 583b 923d
000001d0: ade3 fd3d 5e1d 9e3e be2c 63be 167f 7cbe
000001e0: a135 58bd c2d7 73be 298c 22bd df77 723e
000001f0: 8bae fb3e ff62 a33d 2abd 8a3d 2a1d 9bbe
00000200: a467 40bd 5c97 3fbe 7147 173e 1794 10bc
00000210: b5c3 563e fe8b 68bd b5be 923e b66f 5f3e
00000220: 9cc8 0a3e 0e04 2cbe 2d56 a2be 5504 193e
00000230: 8523 17be 310b e23e 2d80 a4bc 463a c9be
00000240: ae4d 3abe 025d 9cbe 759f 33be 04d0 183e
00000250: 6dfb babc 21a2 7ebd f0f7 d0be dc0b 9fbe
00000260: 016d eb3d c391 1e3f bd3d 10bd df48 d1be
00000270: 1486 21be 5047 a83d bdf3 69bc f12f e53d
00000280: 6ea7 2bbd bd99 c93d 9000 403e 64b1 8ebc
00000290: fee1 d9bd b87e 593d ec92 b9be 052b aabd
000002a0: 2a0b 5f3e f8b6 263e 0bbd 7ebe 7254 34bd
000002b0: 4c9a dc3d 8f0b 47bd caff a03d be5f 4c3e
000002c0: 5278 d5bc a150 af3d 060f 203d 83f0 f6bd
000002d0: e34c 673e 743a a53e 0a64 7abd 2010 c9be
000002e0: da5a f5bd 3459 7dbd 30f5 e539 8e11 833d
000002f0: c381 8fbe 2560 e8bd 5334 433c 25b2 f13e
00000300: 2136 e23d 806f 8d3e 29fe 31be 2172 ecbd
00000310: e4b3 f13e 8283 b6bc 2e0d babf a728 aebe
00000320: f702 333f 5a0d 0c3f 0c0e 613f 8240 1ebf
00000330: 3b18 c9bd c9c1 91bf bdf5 073f 6708 df3d
00000340: 910c 2c3d 65fb 653f 57f4 053f 7121 41be
00000350: 31b8 9d3e 2816 9c3f 8d30 a53e dc8c db3e
00000360: baff 183e 0060 95bf 6567 ee3e 288a 633e
00000370: 1e0b 323f 099c 043f 74a3 5f3e fa8b efbe
00000380: a791 a7bd 1966 e0bd 60d1 313e 71ba 42be
00000390: 0a3a ccbd e163 7a3d 0e3e 063f 0559 7c3e
000003a0: 30a3 2e3d 61ef 53be f0fd 8fbd 0db4 b83d
000003b0: 8729 c43c 46ca 103e bd0a 82be 8cc8 87be
000003c0: b382 483d 1346 b93d f198 933d 6fa9 c6bc
000003d0: 9259 df3d 9fcd 93be 3b58 13be 0324 aa3a
000003e0: f848 d5bd 2d78 6c3c e8c2 3cbd 8f9c c33c
000003f0: cbf7 92be 57f1 15bb 8bba a6bc 4bb9 e43e

linears.2.bias f4 [32]
0.0802459 0.0027991387 -0.25463685 -0.2883461 0.12331613 -0.065792024 0.028648196 -0.23689708
-0.05448106 0.11609764 -0.18172826 0.15769891 0.12585722 0.14953561 0.052673284 -0.22781442
-0.12204736 0.53788704 -0.2475134 0.08911054 -0.69258106 0.17938322 0.68814826 -0.42784357
-0.040572297 -0.23952731 0.075497925 0.26923043 0.1577735 -0.30164766 0.034691192 0.5335842
00000000: f657 a43d c171 373b c35f 82be 1aa2 93be
00000010: 2b8d fc3d f8bd 86bd 9faf ea3c 2695 72be
00000020: 8827 5fbd 99c4 ed3d f916 3abe d37b 213e
00000030: b7e0 003e dd1f 193e f1bf 573d 2f48 69be
00000040: f7f3 f9bd f7b2 093f 2774 7dbe 967f b63d
00000050: fe4c 31bf 3cb0 373e 7c2a 303f 500e dbbe
00000060: 232f 26bd a646 75be a89e 9a3d 92d8 893e
00000070: 608f 213e 9071 9abe 5a18 0e3d f998 083f

linears.3.weight f4 [32, 32]
-0.06412091 -0.02761544 0.023294695 -0.13998196 -0.08123106 -0.024958711 -0.4256823 0.080449544
0.06739766 -0.0509642 0.22270526 -0.110928774 0.26802546 -0.252292 -0.07608231 0.013554627
-0.027663758 0.29565904 0.06110192 0.17023776 -0.124173 0.01843373 0.09568663 -0.054092333
0.050413042 0.0288622 -0.077865645 0.009827226 0.28868625 -0.3697306 0.08205098 -0.07225885
0.4478061 0.4541633 0.023120744 0.04031814 -0.40406376 0.03244093 1.2502266 -0.13761066
-0.48585993 -0.2462188 -0.14978245 0.43968752 -0.25881016 0.25125805 -0.021747071 -0.07077096
0.009913052 -0.24195717 0.28402793 0.025082719 0.37164864 -0.53787977 0.08950375 0.14024368
0.23442031 -0.018089605 -0.26457858 0.09401724 -0.21729864 0.3782961 0.26824313 0.12464439
0.0075625377 -0.38584402 -0.2394793 0.077708445 0.30356327 -0.2713136 0.4823023 0.30487633
-0.09909368 -0.115144186 -0.073277846 -0.053079348 -0.1920299 -0.12359537 0.38894022 -0.052267663
-0.061690938 0.041650612 -0.35243025 -0.028534153 0.1779228 0.24700274 0.2464096 -0.109742574
-0.09350926 0.008346469 0.11301293 -0.02866002 -0.027418537 -0.09985102 -0.11842361 0.2830392
-0.002428811 -0.20212065 0.098390214 0.118965246 -0.1135833 0.18430531 -0.17038831 0.10638526
-0.13336703 0.029173171 0.40440607 -0.21326773 -0.019096706 0.05384972 0.2934606 -0.05059536
-0.3093491 0.12674387 -0.32647592 -0.17627455 -0.14999859 0.043365832 0.31936887 -0.030577278
-0.00426241 -0.0079037985 -0.27961695 0.15797506 -0.052737106 0.116614126 0.14357924 0.10603489
0.11324463 -0.1610033 -0.09107111 0.00721152 -0.028954482 -0.1212661 0.18285866 0.028320152
-0.03939297 -0.14595391 0.29217353 0.3594336 -0.33702406 0.15496893 -0.0026759675 -0.115666226
0.056362476 0.029251771 0.066913895 -0.014372784 0.005922004 -0.14038087 0.0013501575 -0.2192214
-0.17270577 -0.1876439 -0.076438405 0.1682999 -0.05862512 0.19787225 -0.20888568 0.11258088
0.032371957 0.028066047 -0.043415677 0.16173586 -0.05936894 0.41569144 0.31897086 -0.019140966
0.09217376 0.2216658 0.29340217 0.04588124 0.21304199 -0.1435435 -0.059334744 -0.17492951
0.10357299 0.20975219 -0.32138056 0.29981816 -0.09599903 -0.1837316 0.17604105 -0.20399356
0.19061394 -0.29086998 0.010791084 0.31830978 0.26750335 -0.04782985 -0.15277116 0.42083576
0.14805065 -0.043371722 -0.4087987 -0.012011469 0.12156518 -0.32185057 0.10071846 0.038026415
0.07137 0.14592429 -0.052346207 0.09021829 0.052781608 0.026736377 -0.05371505 -0.013977197
0.01646497 0.0028458962 -0.03138516 -0.39163756 -0.050120503 -0.07834788 0.5405999 -0.1832194
-0.18636416 -0.35769567 0.10734597 0.18852046 0.1311009 0.021170208 0.00033074932 0.0068285037
-0.14133075 -0.10020626 0.010136235 0.08813778 -0.0455573 0.1519978 -0.50636417 -0.21660452
0.13002491 0.23908728 -0.52957314 -0.07475167 -0.14776824 0.04152777 -0.06386132 -0.21297869
0.045396585 -0.088781 0.004079468 0.2589214 -0.12776259 -0.3428528 -0.04051774 -0.0055438825
-0.070548385 -0.0737147 -0.1648538 0.001966468 -0.07341212 0.028281787 -0.18770294 -0.28057477
00000000: d351 83bd c639 e2bc 84d4 be3c 6e57 0fbe
00000010: 785c a6bd 3676 ccbc 08f3 d9be bbc2 a43d
00000020: c907 8a3d d6bf 50bd d90c 643e a02e e3bd
00000030: a23a 893e 6b2c 81be 0bd1 9bbd 3a14 5e3c
00000040: 1b9f e2bc 9f60 973e 0246 7a3d cf52 2e3e
00000050: 6a4e febd 5502 973c 5af7 c33d ec8f 5dbd
00000060: e87d 4e3d 6c70 ec3c 0678 9fbd 6002 213c
00000070: afce 933e 544d bdbe 580a a83d 73fc 93bd
00000080: d746 e53e 1888 e83e b767 bd3c a224 253d
00000090: 72e1 cebe c8e0 043d 6d07 a03f cfe9 0cbe
000000a0: a2c2 f8be c820 7cbe 9260 19be b91e e13e
000000b0: c482 84be e5a4 803e ea26 b2bc 5df0 90bd
000000c0: 5b6a 223c 9fc3 77be 1c6c 913e 467a cd3c
000000d0: bb48 be3e 7db2 09bf be4d b73d 0a9c 0f3e
000000e0: e10b 703e a730 94bc d876 87be 1c8c c03d
000000f0: 8983 5ebe 07b0 c13e 2a57 893e 8f45 ff3d
00000100: 2acf f73b 598d c5be 103a 75be 9b25 9f3d
00000110: a56c 9b3e 9ee9 8abe 54f0 f63e c018 9c3e
00000120: a1f1 cabd b7d0 ebbd b212 96bd bb69 59bd
00000130: 7ca3 44be 921f fdbd 2c23 c73e 9e16 56bd
00000140: a3af 7cbd d599 2a3d bd71 b4be 75c0 e9bc
00000150: 6531 363e 49ee 7c3e cc52 7c3e b7c0 e0bd
00000160: c881 bfbd a1bf 083c 5373 e73d 6bc8 eabc
00000170: d79c e0bc b17e ccbd 1488 f2bd 84ea 903e
00000180: b02c 1fbb b7f8 4ebe cf80 c93d 0da4 f33d
00000190: 5c9e e8bd 88ba 3c3e 467a 2ebe 84e0 d93d
000001a0: 5e91 08be 93fc ee3c 500e cf3e db62 5abe
000001b0: b270 9cbc 8691 5c3d 7840 963e 153d 4fbd
000001c0: 0163 9ebe 25c9 013e da27 a7be 5181 34be
000001d0: 3b99 19be 5fa0 313d 5184 a33e 337d fabc
000001e0: b0ab 8bbb ef7e 01bc f429 8fbe 37c4 213e
000001f0: dd02 58bd 63d3 ee3d 7006 133e d228 d93d
00000200: cdec e73d 0dde 24be 7d83 babd 9d4e ec3b
00000210: f331 edbc 5c5a f8bd 4d3f 3b3e aaff e73c
00000220: 865a 21bd f174 15be c597 953e ae07 b83e
00000230: 6b8e acbe 2db0 1e3e 495f 2fbb 6ae2 ecbd
00000240: 57dc 663d 69a1 ef3c 270a 893d d37b 6bbc
00000250: 5f0d c23b 01c0 0fbe c5f7 b03a 937b 60be
00000260: c8d9 30be b925 40be bd8b 9cbd cf56 2c3e
00000270: e520 70bd 069f 4a3e 21e6 55be ce90 e63d
00000280: 7598 043d c4ea e53c a3d4 31bd 169e 253e
00000290: d82c 73bd 82d5 d43e 2650 a33e 84cd 9cbc
000002a0: 99c5 bc3d 5cfc 623e cf38 963e f8ed 3b3d
000002b0: ae27 5a3e 11fd 12be fd08 73bd b920 33be
000002c0: 131e d43d 47c9 563e fe8b a4be c481 993e
000002d0: 249b c4bd 2324 3cbe 1b44 343e b0e3 50be
000002e0: 4d30 433e e9ec 94be 16cd 303c 80f9 a23e
000002f0: 33f6 883e 3ce9 43bd 0b70 1cbe c977 d73e
00000300: 979a 173e 8ca6 31bd 104e d1be c1cb 44bc
00000310: 2af7 f83d 99c9 a4be 7b45 ce3d 96c1 1b3d
00000320: 6f2a 923d 2d6d 153e fa68 56bd 5ec4 b83d
00000330: 8731 583d 3f06 db3c 5004 5cbd 9d00 65bc
00000340: 8be1 863c 3782 3a3b ba8d 00bd b884 c8be
00000350: 284b 4dbd da74 a0bd c164 0a3f de9d 3bbe
00000360: 3fd6 3ebe e323 b7be 34d8 db3d 820b 413e
00000370: 503f 063e 256d ad3c 6c68 ad39 a4c1 df3b
00000380: 02b9 10be f138 cdbd 7312 263c 9581 b43d
00000390: 4b9a 3abd 50a5 1b3e 15a1 01bf 93cd 5dbe
000003a0: 4025 053e 4cd3 743e 1b92 07bf 6717 99bd
000003b0: 8f50 17be 0619 2a3d b9c9 82bd 1617 5abe
000003c0: c5f1 393d d0d2 b5bd 0fad 853b 5991 843e
000003d0: 32d4 02be 678a afbe eef5 25bd 75a9 b5bb
000003e0: ac7b 90bd bcf7 96bd 6fcf 28be dcdf 003b
000003f0: 1859 96bd 35af e73c 3335 40be 7fa7 8fbe

linears.3.bias f4 [32]
0.17897473 0.3234719 -0.073885374 0.06047119 0.010611765 0.28272715 0.22377059 -0.068803936
0.011958999 -0.25239903 0.36380646 -0.10515545 0.0053516435 0.20908889 0.23801927 0.21083015
0.03199498 -0.5409426 -0.051049873 0.0069069774 0.38535303 -0.12568736 -0.3905933 -0.1902089
-0.06047803 -0.01033259 0.040745266 -0.14114822 0.24756125 0.120132335 -0.15089613 0.021414394
00000000: 2745 373e 1c9e a53e 3751 97bd a3b0 773d
00000010: f8dc 2d3c 9dc1 903e 1e24 653e 14e9 8cbd
00000020: adef 433c 723a 81be d744 ba3e be5b d7bd
00000030: d75c af3b 661b 563e 53bb 733e dce3 573e
00000040: 2b0d 033d 377b 0abf ac19 51bd ed53 e23b
00000050: fe4c c53e 30b4 00be d8fb c7be 1fc6 42be
00000060: d0b7 77bd 064a 29bc 82e4 263d 2989 10be
00000070: b280 7d3e f107 f63d 8484 1abe 3d6d af3c

linears.4.weight f4 [32, 32]
-0.18729934 -0.06599675 0.03063123 0.051101197 0.07429016 -0.29842284 0.08961419 0.087497994
-0.29898047 0.27753404 0.25352922 -0.0698298 0.3102964 -0.2046511 -0.06561123 -0.14237936
0.1202532 -0.04394665 0.1775419 0.011215353 -0.05995651 -0.23391543 -0.08465573 0.11804276
0.036300767 -0.11313839 0.102117345 0.02365656 -0.40258843 -0.011453802 0.06498543 -0.3137858
-0.097099766 0.09424842 -0.01435505 -0.01632502 -0.15453915 -0.11823862 -0.4244744 0.05579979
0.081788175 0.030377302 0.069740325 0.022661097 -0.06268788 -0.0129287895 -0.13126677 -0.072048366
-0.17133941 0.22216251 -0.034305073 -0.34516746 -0.11374343 -0.073959626 -0.2736317 -0.059293803
-0.20853467 0.018209463 -0.20580204 0.160986 -0.042894993 -0.31505603 0.10315184 0.09985763
0.29017603 0.10328329 -0.0826391 -0.24750644 -0.11748199 -0.13052283 -0.3685663 0.3175267
0.013553655 0.16508646 -0.089954615 0.06474266 0.17711937 0.055958334 -0.037486173 0.40540853
0.17584749 0.106386125 0.09296378 -0.06894963 -0.10584245 0.0154913785 0.20248426 0.19140662
0.19311306 0.066838674 0.09285117 0.3025173 -0.5308827 0.011386146 -0.26963338 -0.067696586
-0.15269162 0.0834992 0.16087392 -0.064113 -0.053702977 -0.096702084 0.07860118 -0.29384193
-0.13344577 0.23195486 0.08793692 0.23191288 -0.07188571 0.006163336 -0.25144044 0.0508395
-0.18031994 0.15073429 -0.031959396 -0.25344002 -0.0958194 0.04515263 -0.035391934 -0.09718948
-0.15079355 -0.030990476 -0.09171619 0.16467652 -0.04970648 -0.11628897 -0.16963652 -0.20779854
0.13884185 0.00254424 0.038141865 0.046173014 0.03596045 0.06734147 0.077420205 0.24568158
-0.0765676 0.03767276 -0.23276536 -0.043432754 -0.07652457 -0.04191907 -0.12380531 -0.014486562
0.09552194 -0.116191775 0.022661384 0.10707368 -0.05995955 0.17929837 -0.15743199 0.12278529
0.11624649 -0.12612775 -0.2153403 0.1975458 0.11257126 0.27713752 0.16517599 0.25066984
0.017217021 0.37632364 0.017726976 0.25879902 0.11182941 -0.062202808 0.09418324 0.049370043
-0.21697968 -0.2115128 -0.24679904 0.18700421 0.18146445 -0.23368841 0.11092909 0.15712029
0.013832584 0.17505263 0.08237484 0.444198 -0.050427817 -0.055366598 -0.17736189 0.3035031
0.25095385 -0.038829476 -0.1143114 0.18240462 0.56751615 0.21951666 -0.17773978 0.07953061
0.42471296 -0.19083913 0.1514052 -0.29097265 -0.11121867 0.04155942 0.10151629 0.3010358
-0.08405858 0.07525083 -0.11157863 -0.43518016 0.10109667 0.0043241875 -0.022965763 0.2817271
0.27163613 -0.049246915 -0.06396133 0.19868061 0.38451213 -0.046529803 -0.057913654 -0.21507911
-0.07033321 0.06632754 0.0073131225 -0.04608962 0.23837413 0.14392339 -0.15605892 0.30660284
-0.01116429 0.1302864 -0.2567422 -0.19861007 0.12882902 0.3505846 0.069967315 -0.012872736
-0.14866793 -0.22803965 0.025524579 -0.25713533 0.09243979 -0.0118202325 -0.44557542 0.08934322
0.08147816 -0.17077537 0.36796856 0.1906672 0.05170622 -0.088690855 0.1137452 -0.01114701
-0.40484196 0.21048515 -0.12608288 0.048819143 -0.18780948 0.33634573 0.25383025 -0.13517459
00000000: 66cb 3fbe 4e29 87bd 58ee fa3c 7d4f 513d
00000010: 7025 983d e1ca 98be a587 b73d 2632 b33d
00000020: f813 99be f118 8e3e 95ce 813e ed02 8fbd
00000030: 2bdf 9e3e 0f90 51be 2e5f 86bd e5cb 11be
00000040: 4f47 f63d 6701 34bd 8bcd 353e 9ac0 373c
00000050: f594 75bd 8787 6fbe fc5f adbd 67c0 f13d
00000060: 1db0 143d 1ab5 e7bd e622 d13d 67cb c13c
00000070: 1220 cebe baa8 3bbc 1517 853d 88a8 a0be
00000080: 3edc c6bd 5105 c13d 7231 6bbc 0cbc 85bc
00000090: 833f 1ebe 1727 f2bd b554 d9be 528e 643d
000000a0: 8f80 a73d d2d9 f83c 04d4 8e3d c4a3 b93c
000000b0: 8162 80bd 46d3 53bc cc6a 06be 188e 93bd
000000c0: 9973 2fbe 927e 633e 7a83 0cbd cab9 b0be
000000d0: 51f2 e8bd 2578 97bd 7419 8cbe 0fde 72bd
000000e0: 1d8a 55be 032c 953c c5bd 52be 84d9 243e
000000f0: a9b2 2fbd 064f a1be 4641 d33d 2882 cc3d
00000100: f491 943e 3186 d33d b03e a9bd 5472 7dbe
00000110: 669a f0bd c7a7 05be b9b4 bcbe dc92 a23e
00000120: 2610 5e3c 6d0c 293e 203a b8bd cd97 843d
00000130: c85e 353e 9134 653d 1a8b 19bd b591 cf3e
00000140: 5d11 343e f8e0 d93d cb63 be3d 7735 8dbd
00000150: edc3 d8bd 8dcf 7d3c 0958 4f3e 1900 443e
00000160: 6ebf 453e b7e2 883d c128 be3d 8ce3 9a3e
00000170: eee7 07bf f58c 3a3c 630d 8abe 82a4 8abd
00000180: 315b 1cbe a101 ab3d 22bc 243e ad4d 83bd
00000190: a7f7 5bbd be0b c6bd a8f9 a03d 7372 96be
000001a0: 02a6 08be 9385 6d3e 4618 b43d 927a 6d3e
000001b0: d138 93bd cff5 c93b cdbc 80be 143d 503d
000001c0: caa5 38be 175a 1a3e dbe7 02bd e4c2 81be
000001d0: f63c c4bd f7f1 383d 22f7 10bd 470b c7bd
000001e0: a069 1abe bddf fdbc b3d5 bbbd f6a0 283e
000001f0: 0699 4bbd e928 eebd 32b5 2dbe 24c9 54be
00000200: 8f2c 0e3e 44bd 263b a53a 1c3d ea1f 3d3d
00000210: 444b 133d 53ea 893d 7c8e 9e3d f493 7b3e
00000220: 79cf 9cbd c14e 1a3d 0b5a 6ebe 8be6 31bd
00000230: eab8 9cbd 55b3 2bbd a38d fdbd 0c59 6dbc
00000240: 02a1 c33d f4f5 edbd 5ea4 b93c 7249 db3d
00000250: 2598 75bd fe99 373e da35 21be db76 fb3d
00000260: a412 ee3d a227 01be 2b82 5cbe 7249 4a3e
00000270: c38b e63d f8e4 8d3e e523 293e cc57 803e
00000280: b60a 8d3c 7ead c03e 2a38 913c 4e81 843e
00000290: d106 e53d 5fc8 7ebd 24e3 c03d 3e38 4a3d
000002a0: ec2f 5ebe d096 58be e3b8 7cbe 087e 3f3e
000002b0: d1d1 393e 044c 6fbe ca2e e33d 24e4 203e
000002c0: 10a2 623c ff40 333e 24b4 a83d ec6d e33e
000002d0: 668d 4ebd 16c8 62bd 5b9e 35be c264 9b3e
000002e0: 067d 803e a80b 1fbd 181c eabd 47c8 3a3e
000002f0: bd48 113f fac8 603e 6b01 36be f2e0 a23d
00000300: fa73 d93e 556b 43be f709 1b3e 5efa 94be
00000310: 9dc6 e3bd 363a 2a3d c6e7 cf3d 5d21 9a3e
00000320: e826 acbd 1b1d 9a3d 5683 e4bd efcf debe
00000330: c50b cf3d eab1 8d3b b222 bcbc 893e 903e
00000340: e413 8b3e 22b7 49bd 28fe 82bd ee72 4b3e
00000350: c6de c43e 0996 3ebd de36 6dbd b33d 5cbe
00000360: dc0a 90bd bcd6 873d eba2 ef3b 78c8 3cbd
00000370: 5918 743e a760 133e e9cd 1fbe 0cfb 9c3e
00000380: 6dea 36bc cc69 053e b773 83be 7060 4bbe
00000390: c1eb 033e d37f b33e 064b 8f3d 2be8 52bc
000003a0: 683c 18be 3a83 69be ec18 d13c 3ea7 83be
000003b0: 1351 bd3d a6a9 41bc 7622 e4be 94f9 b63d
000003c0: 06de a63d bddf 2ebe 6066 bc3e 433e 433e
000003d0: e7c9 533d 8da3 b5bd 3ef3 e83d f3a1 36bc
000003e0: 7247 cfbe 6b89 573e df1b 01be 95f6 473d
000003f0: 2151 40be 8235 ac3e 0af6 813e 356b 0abe

linears.4.bias f4 [32]
-0.098113246 -0.41443297 -0.23686922 -0.2182286 0.09556737 0.027066028 0.27951464 -0.07243119
-0.08304433 -0.20947888 0.024484577 0.29176527 0.22986348 0.011503167 0.0748811 -0.034446675
0.28958258 -0.077481 -0.31729576 -0.03969102 -0.12797719 0.12668057 -0.2227958 0.20517087
-0.0826651 -0.108005166 -0.32607022 -0.21427543 -0.15117054 0.11618107 0.06484308 0.14864224
00000000: 99ef c8bd 8f30 d4be d88d 72be 5177 5fbe
00000010: d3b8 c33d 93b9 dd3c 8b1c 8f3e ce56 94bd
00000020: 2513 aabd a281 56be e193 c83c 4262 953e
00000030: 5561 6b3e c877 3c3c 435b 993d f517 0dbd
00000040: 2b44 943e 5cae 9ebd 9774 a2be 0d93 22bd
00000050: 740c 03be 8db8 013e 9524 64be 5018 523e
00000060: 524c a9bd d031 ddbd adf2 a6be 056b 5bbe
00000070: 73cc 1abe 57f0 ed3d 73cc 843d ac35 183e

linears.5.weight f4 [32, 32]
0.120036386 -0.15142617 -0.1817532 -0.2699378 0.097392455 0.16820203 0.016079098 -0.19497816
0.26662207 -0.23928908 -0.06189479 0.0844489 0.25957808 -0.10708627 -0.099712074 0.18449251
0.23794952 -0.018952891 0.08049703 -0.36995557 -0.05649317 -0.14145456 -0.10645601 0.26821956
-0.15694278 -0.52680004 -0.2674687 -0.32043692 -0.22640698 -0.09612874 -0.049784426 -0.117467344
0.49057367 0.020901741 -0.15482895 0.20888133 -0.16192935 -0.18035811 -0.041087955 0.1917092
0.106798485 0.037579056 0.11541902 -0.15274478 0.0803414 0.00022912344 -0.2328415 -0.05468119
0.023442525 0.32200226 0.13280962 -0.1137057 0.1563397 -0.26686907 0.31092504 0.08508541
0.066930816 -0.4647466 -0.022511639 -0.0899548 0.15618815 -0.10484778 0.047539365 0.011542741
0.14444263 -0.007155245 0.12379536 0.060358915 -0.030722868 0.0020794184 -0.31505427 0.17365265
0.28437963 0.25158918 0.081965476 -0.14572492 -0.22062308 -0.29421532 0.11552812 -0.018128831
-0.13234659 -0.096173175 -0.15308526 -0.092906065 -0.11151032 0.2976067 -0.16429327 -0.034016248
-0.09679915 0.43763575 0.4834265 0.0110846525 0.10540425 0.36147383 0.1342291 -0.21176583
-0.18498541 -0.18757665 -0.31056252 0.032439094 -0.058392223 0.09898406 0.22531703 0.47444797
-0.06026415 0.1657979 -0.074004546 0.060001645 -0.0072949645 -0.1073373 0.07220026 0.22311515
0.057486504 -0.1431222 0.058343407 0.05249447 0.07800864 -0.1907782 0.0075813625 0.28554323
-0.029747168 0.043389723 -0.15870814 -0.062640496 -0.04552081 0.04649239 -0.10543916 0.02752932
0.12853684 -0.030179959 -0.080935486 -0.22327466 0.02940983 0.2528055 -0.08103332 -0.24540772
0.13007231 -0.10142456 -0.054692447 -0.22336695 0.11952202 0.05551783 0.31926197 0.4045575
-0.42216602 0.48433524 0.00154533 -0.47960496 0.11496942 -0.22731169 0.114459634 0.1351061
-0.19649436 0.17818704 -0.0030003507 0.14893995 0.042096715 -0.07604519 -0.22110125 0.18986516
-0.20959257 -0.18686323 0.20383874 -0.0070269764 0.35431215 0.46012563 0.058704544 -0.19227356
-0.5302675 0.10722338 0.105754256 0.111454695 0.19255154 0.35847938 -0.119211875 0.2673327
-0.18494865 -0.049988516 0.23520257 -0.08075477 -0.050798908 -0.10382486 0.014811097 -0.0696079
-0.04881096 0.16049689 -0.07325525 0.12426644 -0.123733155 -0.23277476 0.097469434 0.15457241
0.089424126 0.04817693 0.09104173 0.07946894 -0.10018402 0.18534796 -0.14164516 -0.03536601
-0.016581213 -0.24256735 0.049570695 -0.2771123 0.06509075 -0.1310274 -0.050021656 -0.29586673
0.2661387 0.099189445 0.15266311 0.13207157 0.38067552 0.14656726 -0.017957633 -0.287623
0.24253425 -0.12938008 0.021121364 -0.062104058 0.2655571 -0.061451633 0.18032728 0.09621093
-0.14392439 -0.054534037 0.76686573 0.2962439 0.34329906 -0.008404402 -0.14613858 0.1441119
-0.07529815 -0.3426891 0.013630607 -0.16014545 0.37367922 -0.17684871 0.11729924 0.24962336
-0.7282439 0.2538651 -0.0010661754 0.074493825 -0.13715817 -0.30628368 -0.17260258 0.22975485
0.15958151 -0.2951483 0.099711575 0.54215866 0.43252036 -0.05673585 -0.13555449 -0.16156134
00000000: a3d5 f53d 760f 1bbe 831d 3abe 4a35 8abe
00000010: b275 c73d 273d 2c3e 50b8 833c 5ba8 47be
00000020: b082 883e 3208 75be 6485 7dbd 8bf3 ac3d
00000030: 6be7 843e 0c50 dbbd d835 ccbd 9beb 3c3e
00000040: 0aa9 733e 1843 9bbc a0db a43d d16a bdbe
00000050: 6265 67bd 77d9 10be 9c05 dabd 1354 893e
00000060: 9cb5 20be 5edc 06bf a8f1 88be 4f10 a4be
00000070: 3bd7 67be 25df c4bd c1ea 4bbd b892 f0bd
00000080: 792c fb3e 213a ab3c 7b8b 1ebe fde4 553e
00000090: cfd0 25be ccaf 38be d84b 28bd 6b4f 443e
000000a0: 2ab9 da3d 7fec 193d cf60 ec3d 2169 1cbe
000000b0: 088a a43d db40 7039 016e 6ebe 62f9 5fbd
000000c0: 8a0a c03c 7bdd a43e 3fff 073e 89de e8bd
000000d0: 8417 203e 10a3 88be 9131 9f3e 4241 ae3d
000000e0: 0613 893d 44f3 edbe 546a b8bc 393a b8bd
000000f0: c9ef 1f3e 6fba d6bd a3b8 423d c41d 3d3c
00000100: c5e8 133e 8c76 eabb 6c88 fd3d e93a 773d
00000110: 86ae fbbc da46 083b cb4e a1be 00d2 313e
00000120: 359a 913e 4cd0 803e 84dd a73d ea38 15be
00000130: 04eb 61be 64a3 96be 029a ec3d ea82 94bc
00000140: dd85 07be 71f6 c4bd 62c2 1cbe 8945 bebd
00000150: 865f e4bd e85f 983e 7f3c 28be 9f54 0bbd
00000160: a23e c6bd cb11 e03e ae83 f73e 679c 353c
00000170: 2fde d73d 1913 b93e 5a73 093e 24d9 58be
00000180: d16c 3dbe 1814 40be 0d02 9fbe dbde 043d
00000190: af2c 6fbd 28b8 ca3d 82b9 663e d8ea f23e
000001a0: 8bd7 76bd edc6 293e b28f 97bd 49c4 753d
000001b0: 990a efbb a9d3 dbbd bbdd 933d 4c78 643e
000001c0: f876 6b3d a08e 12be 7ff9 6e3d 7104 573d
000001d0: fec2 9f3d 5c5b 43be 146d f83b b932 923e
000001e0: 55b0 f3bc 6cb9 313d 6384 22be a949 80bd
000001f0: 0774 3abd ce6e 3e3d 7cf0 d7bd 2b85 e13c
00000200: 299f 033e f63b f7bc 81c1 a5bd 1da2 64be
00000210: e2ec f03c b96f 813e ccf4 a5bd 294c 7bbe
00000220: ad31 053e aeb7 cfbd 3005 60bd 4eba 64be
00000230: f6c7 f43d aa66 633d 4e76 a33e 2922 cf3e
00000240: 2526 d8be cafa f73e ac8c ca3a c88e f5be
00000250: 1675 eb3d 65c4 68be d069 ea3d 4159 0a3e
00000260: d135 49be aa76 363e 88a1 44bb b783 183e
00000270: 9b6d 2c3d 95bd 9bbd 5e68 62be 036c 423e
00000280: 6f9f 56be 1359 3fbe 1abb 503e 8d42 e6bb
00000290: 6768 b53e 9695 eb3e 2d74 703d 5ce3 44be
000002a0: 9cbf 07bf ee97 db3d b095 d83d 5c42 e43d
000002b0: 3b2c 453e 9c8a b73e 5b25 f4bd d5df 883e
000002c0: 2e63 3dbe c2c0 4cbd f1d8 703e c262 a5bd
000002d0: 8412 50bd 21a2 d4bd 3eaa 723c 968e 8ebd
000002e0: 00ee 47bd 4c59 243e d906 96bd 677f fe3d
000002f0: cf67 fdbd 825c 6ebe 0e9e c73d 3b48 1e3e
00000300: ff23 b73d 2c55 453d 1674 ba3d 9dc0 a23d
00000310: 482d cdbd dbcb 3d3e 6e0b 11be f3db 10bd
00000320: 53d5 87bc 9363 78be a40a 4b3d aae1 8dbe
00000330: 4d4e 853d 0c2c 06be 82e3 4cbd d87b 97be
00000340: 5543 883e d623 cb3d b853 1c3e c53d 073e
00000350: e7e7 c23e ba15 163e e31b 93bc 5243 93be
00000360: e65a 783e 367c 04be b606 ad3c d360 7ebd
00000370: 1af7 873e b5b4 7bbd b7a7 383e 3c0a c53d
00000380: ea60 13be 155f 5fbd 5051 443f 48ad 973e
00000390: e5c4 af3e 9eb2 09bc 5aa5 15be 1292 133e
000003a0: eb35 9abd f274 afbe e952 5f3c 2bfd 23be
000003b0: e252 bf3e d417 35be 953a f03d 449d 7f3e
000003c0: 316e 3abf 9bfa 813e e9be 8bba 3890 983d
000003d0: 3173 0cbe 37d1 9cbe bbbe 30be db44 6b3e
000003e0: 5669 233e ae1d 97be 9535 cc3d e9ca 0a3f
000003f0: 4f73 dd3e da63 68bd ccce 0abe 5670 25be

linears.5.bias f4 [32]
0.28867993 -0.13356422 -0.15949649 0.027101796 0.036191117 0.15633075 -0.04249759 -0.08049009
0.10483519 -0.019463755 -0.015247682 0.017187985 -0.023281064 -0.15016529 -0.058557894 0.4707291
0.037527233 0.06018455 0.14247096 -0.083001345 -0.09784347 -0.0177973 0.06433572 0.1402561
-0.07277152 0.044852473 -0.037660785 0.056753777 0.02187582 0.10392219 -0.13487788 0.08241844
00000000: dbcd 933e 0fc5 08be 0c53 23be 9604 de3c
00000010: 233d 143d 2b15 203e f411 2ebd fdd7 a4bd
00000020: d5b3 d63d 7472 9fbc 6ad1 79bc d1cd 8c3c
00000030: eeb7 bebc eec4 19be 67da 6fbd 6803 f13e
00000040: 28b6 193d 1384 763d e8e3 113e 9cfc a9bd
00000050: 2862 c8bd a5cb 91bc 72c2 833d 4c9f 0f3e
00000060: 3c09 95bd 3ab7 373d 3242 1abd a676 683d
00000070: eb34 b33c 28d5 d43d 6d1d 0abe 00cb a83d

linears.6.weight f4 [32, 32]
0.12778993 0.024416687 0.24433126 -0.08539515 -0.03398954 0.35408765 0.15079638 0.07502483
0.21026811 -0.1356664 0.03616169 0.084968805 0.3274575 -0.06996695 -0.07646191 0.3586119
-0.016218482 -0.17879362 0.07030895 0.32496253 -0.4265845 -0.036135342 -0.04329699 0.43793583
-0.030195298 -0.082431346 0.13587047 -0.18482067 0.047953874 0.2570512 -0.12963387 -0.089972444
-0.08366482 0.067885354 0.08788757 -0.17092375 -0.3216223 -0.18777587 0.18765298 -0.21624525
-0.38966942 0.2010667 0.07139279 0.4052669 0.14264151 -0.062678024 0.2395556 -0.2753974
0.28798547 0.22881684 -0.41807666 -0.096603155 0.13038379 0.08164548 0.32391226 -0.24918625
0.021424608 -0.22338654 0.376455 0.09196796 -0.10870505 -0.116877764 -0.07428986 -0.20109214
0.13422158 -0.073460236 0.044698667 0.062864326 0.21069899 0.07365119 0.113126226 -0.18982731
0.043171894 -0.04618512 -0.017563613 -0.032352448 0.14651592 0.30868676 -0.018894635 -0.30576298
-0.2273817 -0.032347713 -0.18884656 -0.4333391 0.015053562 -0.18255202 0.12763013 -0.18779108
0.084509164 0.09384959 0.2598397 0.26006195 -0.12156769 0.050079085 0.07590499 -0.22168142
-0.07198965 0.032948826 0.18588226 -0.14679186 -0.34712926 -0.21335389 0.35484013 0.099329636
0.123014316 0.16535063 0.22319627 0.11992254 -0.10232054 -0.037530717 0.25490972 -0.20021309
0.12995276 -0.015585094 -0.23939802 -0.31764567 0.35086483 -0.10233621 0.040423106 0.14381765
0.19530007 -0.09528449 0.15201263 0.27422142 -0.015192412 -0.30767345 -0.033573385 0.10579519
0.3476384 0.18223698 -0.0811174 0.120370016 0.090610474 -0.41766492 0.05191466 -0.31858772
-0.11879732 -0.1534907 0.4165573 0.038848024 0.1490092 0.0584743 -0.28921768 -0.20357476
0.0674975 0.06822648 0.14706694 -0.23108816 0.24762586 -0.09033242 -0.10373581 -0.39496565
0.67075425 -0.10581621 -0.08817147 0.28395823 -0.3241369 0.05616759 0.25738004 -0.0855216
-0.04661168 0.031901848 -0.122508176 -0.21919312 0.18082133 -0.0021272816 0.24398732 0.20350648
-0.14238709 0.19015834 -0.0033082184 -0.011799658 -0.1835745 -0.15901738 -0.11200465 0.08459621
0.2055693 -0.0056959935 0.13062117 0.014256883 -0.090198144 0.2603244 -0.0047704265 0.4580144
0.19592102 0.040735953 -0.122889504 -0.3390313 -0.13449673 0.07505995 0.0658663 -0.058944266
-0.1793298 -0.050642703 0.20785622 0.29650754 -0.1269135 0.26970223 0.066150166 -0.24590048
0.0086273 0.08167111 0.013333777 0.054323025 -0.052620698 -0.10583651 -0.108928524 0.045069564
-0.032366835 0.07071166 0.011977191 0.09658384 -0.019955065 0.25179526 -0.07717902 -0.15479778
0.12630524 0.22855267 0.03433853 0.15017132 -0.24834804 -0.4784316 -0.113880046 -0.35362706
0.04000105 0.06212802 -0.40043294 0.14183624 -0.14313921 0.17551397 -0.029589137 -0.053780094
-0.2633805 0.14372186 0.3060531 0.1589429 -0.09235081 0.033645857 0.022877425 0.14455242
-0.17149422 0.46191084 -0.11915739 0.24952099 -0.009135901 -0.15776853 0.03937124 0.17142548
0.030543856 -0.15843314 -0.05752857 0.011138594 0.13129243 0.03289192 0.02001341 -0.01905246
00000000: 5ddb 023e 8105 c83c f931 7a3e a7e3 aebd
00000010: 9e38 0bbd fa4a b53e 5e6a 1a3e 9ea6 993d
00000020: 8650 573e 22ec 0abe 481e 143d 2004 ae3d
00000030: 82a8 a73e d54a 8fbd 1098 9cbd fb9b b73e
00000040: 9fdc 84bc ad15 37be 24fe 8f3d 7d61 a63e
00000050: 4969 dabe a702 14bd 2f58 31bd 2039 e03e
00000060: 215c f7bc c4d1 a8bd a121 0b3e a141 3dbe
00000070: 486b 443d 379c 833e bebe 04be 7943 b8bd
00000080: 7658 abbd 7a07 8b3d 66fe b33d a306 2fbe
00000090: aeab a4be 5148 40be 1a28 403e 656f 5dbe
000000a0: c082 c7be 6ee4 4d3e 6236 923d 257f cf3e
000000b0: 9e10 123e 565d 80bd 104e 753e e300 8dbe
000000c0: d572 933e f64e 6a3e 250e d6be e0d7 c5bd
000000d0: 5483 053e bf35 a73d d4d7 a53e ae2a 7fbe
000000e0: a982 af3c 71bf 64be b6be c03e b359 bc3d
000000f0: c1a0 debd 9c5d efbd 4825 98bd 19eb 4dbe
00000100: 6271 093e 5272 96bd f315 373d 03bf 803d
00000110: 7ac1 573e 6fd6 963d b9ae e73d 1762 42be
00000120: 03d5 303d 9c2c 3dbd 91e1 8fbc 0084 04bd
00000130: 4508 163e 310c 9e3e ecc8 9abc f78c 9cbe
00000140: c0d6 68be 097f 04bd fe60 41be 9fde ddbe
00000150: 37a3 763c ebee 3abe 79b1 023e 4e4c 40be
00000160: 2413 ad3d 3734 c03d b609 853e d726 853e
00000170: 7bf8 f8bd ba1f 4d3d 1374 9b3d 7400 63be
00000180: 4f6f 93bd 59f5 063d eb57 3e3e 9b50 16be
00000190: edba b1be 7179 5abe 9bad b53e 566d cb3d
000001a0: eeee fb3d ad51 293e 908d 643e f399 f53d
000001b0: 6e8d d1bd cfb9 19bd 8783 823e a904 4dbe
000001c0: 5612 053e 9f58 7fbc c124 75be 74a2 a2be
000001d0: 8ea4 b33e a695 d1bd b392 253d ef44 133e
000001e0: befc 473e 8424 c3bd 33a9 1b3e c066 8c3e
000001f0: 98e9 78bc 6087 9dbe 3f84 09bd 26ab d83d
00000200: a9fd b13e 559c 3a3e e120 a6bd 8e84 f63d
00000210: fc91 b93d 2dd8 d5be 77a4 543d ee1d a3be
00000220: 024c f3bd ab2c 1dbe 0047 d53e 1b1f 1f3d
00000230: de95 183e bf82 6f3d 5714 94be e775 50be
00000240: 213c 8a3d 53ba 8b3d b798 163e 60a2 6cbe
00000250: a291 7d3e 3400 b9bd 7173 d4bd f038 cabe
00000260: 8db6 2b3f 2bb6 d8bd 3e93 b4bd f962 913e
00000270: 46f5 a5be fd0f 663d 51c7 833e f325 afbd
00000280: e4eb 3ebd 83ab 023d 91e5 fabd 2974 60be
00000290: 3a29 393e dd69 0bbb d0d7 793e 0164 503e
000002a0: eccd 11be deb8 423e b2ce 58bb 5a53 41bc
000002b0: f4fa 3bbe 74d5 22be b262 e5bd c740 ad3d
000002c0: c280 523e 75a5 babb 8ec1 053e b495 693c
000002d0: ceb9 b8bd 3d49 853e 3d51 9cbb dd80 ea3e
000002e0: 859f 483e beda 263d 7ead fbbd 8395 adbe
000002f0: 83b9 09be 08b9 993d e9e4 863d 8b6f 71bd
00000300: 3ba2 37be b96e 4fbd 43d8 543e d6cf 973e
00000310: 9df5 01be 6916 8a3e bd79 873d 56cd 7bbe
00000320: 8559 0d3c 2f43 a73d ea75 5a3c d281 5e3d
00000330: cd88 57bd d0c0 d8bd eb15 dfbd dd9a 383d
00000340: 1693 04bd 46d1 903d fb3b 443c c0cd c53d
00000350: ce78 a3bc 4feb 803e 0910 9ebd 4f83 1ebe
00000360: 2956 013e b609 6a3e 8fa6 0c3d 83c6 193e
00000370: f34e 7ebe fdf4 f4be f139 e9bd 9b0e b5be
00000380: 24d8 233d f379 7e3d 8c05 cdbe 853d 113e
00000390: 1693 12be efb9 333e eb64 f2bc 8448 5cbd
000003a0: cfd9 86be d32b 133e feb2 9c3e edc1 223e
000003b0: 6c22 bdbd 3dd0 093d 7069 bb3c 8d05 143e
000003c0: 2e9c 2fbe 947f ec3e ca08 f4bd 6e82 7f3e
000003d0: bfae 15bc 138e 21be bd43 213d 298a 2f3e
000003e0: 1c37 fa3c 4c3c 22be 14a3 6bbd a67e 363c
000003f0: 8671 063e aeb9 063d 2af3 a33c e813 9cbc

linears.6.bias f4 [32]
0.1266442 -0.06518095 -0.049049966 -0.14778991 -0.036208715 0.00907925 -0.079028524 -0.051035926
0.14137565 0.019994901 0.033347003 0.07972834 0.010956833 0.07068219 -0.0055510495 0.07532791
-0.18172368 0.09886928 0.026370123 0.029156737 -0.056258414 -0.026653925 0.029218635 0.07110532
-0.013706186 0.009110847 0.071207546 0.069432355 -0.008686826 0.070934415 0.043689407 -0.093665786
00000000: 04af 013e 977d 85bd 9ee8 48bd 3d56 17be
00000010: 974f 14bd 22c1 143c b5d9 a1bd 0c0b 51bd
00000020: c7c4 103e 59cc a33c de96 083d 9d48 a33d
00000030: 4a84 333c d3c1 903d 94e5 b5bb 8545 9a3d
00000040: c615 3abe fa7b ca3d 2806 d83c 1cda ee3c
00000050: 396f 66bd 5559 dabc eb5b ef3c aa9f 913d
00000060: e98f 60bc a945 153c 43d5 913d 8d32 8e3d
00000070: 3053 0ebc 1046 913d aaf3 323d d9d3 bfbd
